Layer name, IFMAP Height, IFMAP Width, Filter Height, Filter Width, Channels, Num Filter, Strides, Type, IFMAP Base Addr, Filter Base Addr, Ofmap Base Addr,
multiply_reduce_fusion.281,3072,3072,3072,1,1,1,1,Dir_Gemm,-1,-1,-1,
rope1,24,128,1,1,1,1,1,Other,-1,-2,-1,
rope2,128,1,1,1,1,1,30,Other,-1,-2,-1,
rope3,256,1,1,1,1,1,30,Other,-1,-2,-1,
multiply_reduce_fusion.393,1024,3072,3072,1,1,1,1,Dir_Gemm,-1,-2,-1,
rope4,8,64,1,1,1,1,1,Other,-1,-2,-1,
rope5,8,128,1,1,1,1,1,Other,-1,-2,-1,
gqa_prep1,936,128,1,1,1,1,1,Other,-1,-2,-1,
gqa_prep2,2808,128,1,1,1,1,1,Other,-1,-2,-1,
multiply_reduce_fusion.505_0,128,117,117,128,1,1,1,Dir_Gemm,-1,-2,-1,
multiply_reduce_fusion.505_1,128,117,117,128,1,1,1,Dir_Gemm,-1,-2,-1,
multiply_reduce_fusion.505_2,128,117,117,128,1,1,1,Dir_Gemm,-1,-2,-1,
multiply_reduce_fusion.505_3,128,117,117,128,1,1,1,Dir_Gemm,-1,-2,-1,
multiply_reduce_fusion.505_4,128,117,117,128,1,1,1,Dir_Gemm,-1,-2,-1,
multiply_reduce_fusion.505_5,128,117,117,128,1,1,1,Dir_Gemm,-1,-2,-1,
multiply_reduce_fusion.505_6,128,117,117,128,1,1,1,Dir_Gemm,-1,-2,-1,
multiply_reduce_fusion.505_7,128,117,117,128,1,1,1,Dir_Gemm,-1,-2,-1,
multiply_reduce_fusion.505_8,128,117,117,128,1,1,1,Dir_Gemm,-1,-2,-1,
multiply_reduce_fusion.505_9,128,117,117,128,1,1,1,Dir_Gemm,-1,-2,-1,
multiply_reduce_fusion.505_10,128,117,117,128,1,1,1,Dir_Gemm,-1,-2,-1,
multiply_reduce_fusion.505_11,128,117,117,128,1,1,1,Dir_Gemm,-1,-2,-1,
multiply_reduce_fusion.505_12,128,117,117,128,1,1,1,Dir_Gemm,-1,-2,-1,
multiply_reduce_fusion.505_13,128,117,117,128,1,1,1,Dir_Gemm,-1,-2,-1,
multiply_reduce_fusion.505_14,128,117,117,128,1,1,1,Dir_Gemm,-1,-2,-1,
multiply_reduce_fusion.505_15,128,117,117,128,1,1,1,Dir_Gemm,-1,-2,-1,
multiply_reduce_fusion.505_16,128,117,117,128,1,1,1,Dir_Gemm,-1,-2,-1,
multiply_reduce_fusion.505_17,128,117,117,128,1,1,1,Dir_Gemm,-1,-2,-1,
multiply_reduce_fusion.505_18,128,117,117,128,1,1,1,Dir_Gemm,-1,-2,-1,
multiply_reduce_fusion.505_19,128,117,117,128,1,1,1,Dir_Gemm,-1,-2,-1,
multiply_reduce_fusion.505_20,128,117,117,128,1,1,1,Dir_Gemm,-1,-2,-1,
multiply_reduce_fusion.505_21,128,117,117,128,1,1,1,Dir_Gemm,-1,-2,-1,
multiply_reduce_fusion.505_22,128,117,117,128,1,1,1,Dir_Gemm,-1,-2,-1,
multiply_reduce_fusion.505_23,128,117,117,128,1,1,1,Dir_Gemm,-1,-2,-1,
softmax,24,117,1,1,1,1,40,Other,-1,-2,-1,
gqa_prep3,936,128,1,1,1,1,1,Other,-1,-2,-1,
gqa_prep4,2808,128,1,1,1,1,1,Other,-1,-2,-1,
multiply_reduce_fusion.504_0,117,128,128,117,1,1,1,Dir_Gemm,-1,-2,-1,
multiply_reduce_fusion.504_1,117,128,128,117,1,1,1,Dir_Gemm,-1,-2,-1,
multiply_reduce_fusion.504_2,117,128,128,117,1,1,1,Dir_Gemm,-1,-2,-1,
multiply_reduce_fusion.504_3,117,128,128,117,1,1,1,Dir_Gemm,-1,-2,-1,
multiply_reduce_fusion.504_4,117,128,128,117,1,1,1,Dir_Gemm,-1,-2,-1,
multiply_reduce_fusion.504_5,117,128,128,117,1,1,1,Dir_Gemm,-1,-2,-1,
multiply_reduce_fusion.504_6,117,128,128,117,1,1,1,Dir_Gemm,-1,-2,-1,
multiply_reduce_fusion.504_7,117,128,128,117,1,1,1,Dir_Gemm,-1,-2,-1,
multiply_reduce_fusion.504_8,117,128,128,117,1,1,1,Dir_Gemm,-1,-2,-1,
multiply_reduce_fusion.504_9,117,128,128,117,1,1,1,Dir_Gemm,-1,-2,-1,
multiply_reduce_fusion.504_10,117,128,128,117,1,1,1,Dir_Gemm,-1,-2,-1,
multiply_reduce_fusion.504_11,117,128,128,117,1,1,1,Dir_Gemm,-1,-2,-1,
multiply_reduce_fusion.504_12,117,128,128,117,1,1,1,Dir_Gemm,-1,-2,-1,
multiply_reduce_fusion.504_13,117,128,128,117,1,1,1,Dir_Gemm,-1,-2,-1,
multiply_reduce_fusion.504_14,117,128,128,117,1,1,1,Dir_Gemm,-1,-2,-1,
multiply_reduce_fusion.504_15,117,128,128,117,1,1,1,Dir_Gemm,-1,-2,-1,
multiply_reduce_fusion.504_16,117,128,128,117,1,1,1,Dir_Gemm,-1,-2,-1,
multiply_reduce_fusion.504_17,117,128,128,117,1,1,1,Dir_Gemm,-1,-2,-1,
multiply_reduce_fusion.504_18,117,128,128,117,1,1,1,Dir_Gemm,-1,-2,-1,
multiply_reduce_fusion.504_19,117,128,128,117,1,1,1,Dir_Gemm,-1,-2,-1,
multiply_reduce_fusion.504_20,117,128,128,117,1,1,1,Dir_Gemm,-1,-2,-1,
multiply_reduce_fusion.504_21,117,128,128,117,1,1,1,Dir_Gemm,-1,-2,-1,
multiply_reduce_fusion.504_22,117,128,128,117,1,1,1,Dir_Gemm,-1,-2,-1,
multiply_reduce_fusion.504_23,117,128,128,117,1,1,1,Dir_Gemm,-1,-2,-1,
multiply_reduce_fusion.255,3072,3072,3072,1,1,1,1,Dir_Gemm,-1,-2,-1,
multiply_reduce_fusion.169,8192,3072,3072,1,1,1,1,Dir_Gemm,-1,-2,-1,
swiglu,8192,1,1,1,1,1,20,Other,-1,-2,-1,
multiply_reduce_fusion.112,3072,8192,8192,1,1,1,1,Dir_Gemm,-1,-2,-1,
