Layer name, IFMAP Height, IFMAP Width, Filter Height, Filter Width, Channels, Num Filter, Strides, Type, IFMAP Base Addr, Filter Base Addr, Ofmap Base Addr,
multiply_reduce_fusion.267_0,2048,2048,2048,1,1,1,1,Dir_Gemm,-1,-1,-1,
multiply_reduce_fusion.267_1,2048,2048,2048,1,1,1,1,Dir_Gemm,-1,-1,-1,
multiply_reduce_fusion.267_2,2048,2048,2048,1,1,1,1,Dir_Gemm,-1,-1,-1,
fusion.1774_0,117,64,64,1,1,1,1,Dir_Gemm,-1,-1,-1,
fusion.1774_1,117,64,64,1,1,1,1,Dir_Gemm,-1,-1,-1,
fusion.1774_2,117,64,64,1,1,1,1,Dir_Gemm,-1,-1,-1,
fusion.1774_3,117,64,64,1,1,1,1,Dir_Gemm,-1,-1,-1,
fusion.1774_4,117,64,64,1,1,1,1,Dir_Gemm,-1,-1,-1,
fusion.1774_5,117,64,64,1,1,1,1,Dir_Gemm,-1,-1,-1,
fusion.1774_6,117,64,64,1,1,1,1,Dir_Gemm,-1,-1,-1,
fusion.1774_7,117,64,64,1,1,1,1,Dir_Gemm,-1,-1,-1,
fusion.1774_8,117,64,64,1,1,1,1,Dir_Gemm,-1,-1,-1,
fusion.1774_9,117,64,64,1,1,1,1,Dir_Gemm,-1,-1,-1,
fusion.1774_10,117,64,64,1,1,1,1,Dir_Gemm,-1,-1,-1,
fusion.1774_11,117,64,64,1,1,1,1,Dir_Gemm,-1,-1,-1,
fusion.1774_12,117,64,64,1,1,1,1,Dir_Gemm,-1,-1,-1,
fusion.1774_13,117,64,64,1,1,1,1,Dir_Gemm,-1,-1,-1,
fusion.1774_14,117,64,64,1,1,1,1,Dir_Gemm,-1,-1,-1,
fusion.1774_15,117,64,64,1,1,1,1,Dir_Gemm,-1,-1,-1,
fusion.1774_16,117,64,64,1,1,1,1,Dir_Gemm,-1,-1,-1,
fusion.1774_17,117,64,64,1,1,1,1,Dir_Gemm,-1,-1,-1,
fusion.1774_18,117,64,64,1,1,1,1,Dir_Gemm,-1,-1,-1,
fusion.1774_19,117,64,64,1,1,1,1,Dir_Gemm,-1,-1,-1,
fusion.1774_20,117,64,64,1,1,1,1,Dir_Gemm,-1,-1,-1,
fusion.1774_21,117,64,64,1,1,1,1,Dir_Gemm,-1,-1,-1,
fusion.1774_22,117,64,64,1,1,1,1,Dir_Gemm,-1,-1,-1,
fusion.1774_23,117,64,64,1,1,1,1,Dir_Gemm,-1,-1,-1,
fusion.1774_24,117,64,64,1,1,1,1,Dir_Gemm,-1,-1,-1,
fusion.1774_25,117,64,64,1,1,1,1,Dir_Gemm,-1,-1,-1,
fusion.1774_26,117,64,64,1,1,1,1,Dir_Gemm,-1,-1,-1,
fusion.1774_27,117,64,64,1,1,1,1,Dir_Gemm,-1,-1,-1,
fusion.1774_28,117,64,64,1,1,1,1,Dir_Gemm,-1,-1,-1,
fusion.1774_29,117,64,64,1,1,1,1,Dir_Gemm,-1,-1,-1,
fusion.1774_30,117,64,64,1,1,1,1,Dir_Gemm,-1,-1,-1,
fusion.1774_31,117,64,64,1,1,1,1,Dir_Gemm,-1,-1,-1,
fusion.1776_0,117,64,64,1,1,1,1,Dir_Gemm,-1,-1,-1,
fusion.1776_1,117,64,64,1,1,1,1,Dir_Gemm,-1,-1,-1,
fusion.1776_2,117,64,64,1,1,1,1,Dir_Gemm,-1,-1,-1,
fusion.1776_3,117,64,64,1,1,1,1,Dir_Gemm,-1,-1,-1,
fusion.1776_4,117,64,64,1,1,1,1,Dir_Gemm,-1,-1,-1,
fusion.1776_5,117,64,64,1,1,1,1,Dir_Gemm,-1,-1,-1,
fusion.1776_6,117,64,64,1,1,1,1,Dir_Gemm,-1,-1,-1,
fusion.1776_7,117,64,64,1,1,1,1,Dir_Gemm,-1,-1,-1,
fusion.1776_8,117,64,64,1,1,1,1,Dir_Gemm,-1,-1,-1,
fusion.1776_9,117,64,64,1,1,1,1,Dir_Gemm,-1,-1,-1,
fusion.1776_10,117,64,64,1,1,1,1,Dir_Gemm,-1,-1,-1,
fusion.1776_11,117,64,64,1,1,1,1,Dir_Gemm,-1,-1,-1,
fusion.1776_12,117,64,64,1,1,1,1,Dir_Gemm,-1,-1,-1,
fusion.1776_13,117,64,64,1,1,1,1,Dir_Gemm,-1,-1,-1,
fusion.1776_14,117,64,64,1,1,1,1,Dir_Gemm,-1,-1,-1,
fusion.1776_15,117,64,64,1,1,1,1,Dir_Gemm,-1,-1,-1,
fusion.1776_16,117,64,64,1,1,1,1,Dir_Gemm,-1,-1,-1,
fusion.1776_17,117,64,64,1,1,1,1,Dir_Gemm,-1,-1,-1,
fusion.1776_18,117,64,64,1,1,1,1,Dir_Gemm,-1,-1,-1,
fusion.1776_19,117,64,64,1,1,1,1,Dir_Gemm,-1,-1,-1,
fusion.1776_20,117,64,64,1,1,1,1,Dir_Gemm,-1,-1,-1,
fusion.1776_21,117,64,64,1,1,1,1,Dir_Gemm,-1,-1,-1,
fusion.1776_22,117,64,64,1,1,1,1,Dir_Gemm,-1,-1,-1,
fusion.1776_23,117,64,64,1,1,1,1,Dir_Gemm,-1,-1,-1,
fusion.1776_24,117,64,64,1,1,1,1,Dir_Gemm,-1,-1,-1,
fusion.1776_25,117,64,64,1,1,1,1,Dir_Gemm,-1,-1,-1,
fusion.1776_26,117,64,64,1,1,1,1,Dir_Gemm,-1,-1,-1,
fusion.1776_27,117,64,64,1,1,1,1,Dir_Gemm,-1,-1,-1,
fusion.1776_28,117,64,64,1,1,1,1,Dir_Gemm,-1,-1,-1,
fusion.1776_29,117,64,64,1,1,1,1,Dir_Gemm,-1,-1,-1,
fusion.1776_30,117,64,64,1,1,1,1,Dir_Gemm,-1,-1,-1,
fusion.1776_31,117,64,64,1,1,1,1,Dir_Gemm,-1,-1,-1,
multiply_reduce_fusion.268,2048,2048,2048,1,1,1,1,Dir_Gemm,-1,-1,-1,
multiply_reduce_fusion.269,8192,2048,2048,1,1,1,1,Dir_Gemm,-1,-1,-1,
multiply_reduce_fusion.270,2048,8192,8192,1,1,1,1,Dir_Gemm,-1,-1,-1,
